camera_calibration/calib_param_mar22.npz (npz, 1672 bytes, 4 tensors)

mtx f8 [3, 3]
00000000: d525 6207 1ec4 8d40 0000 0000 0000 0000
00000010: 8fca 3185 f585 8340 0000 0000 0000 0000
00000020: f630 9196 fcbc 8d40 d1bf 6f09 a6ce 7640
00000030: 0000 0000 0000 0000 0000 0000 0000 0000
00000040: 0000 0000 0000 f03f
952.5146625201984 0.0 624.7448829545918 0.0 951.6233340590541 364.91553634311737 0.0 0.0
1.0

dist f8 [1, 5]
00000000: 5672 df8e e330 a43f 8c92 1576 4dae c1bf
00000010: 6719 a234 aae4 59bf c998 9c48 f92c 56bf
00000020: bcb0 b1e6 d907 a23f
0.03943549269726947 -0.13813179269631737 -0.0015803968586013074 -0.0013534960184613967 0.035216149722005125

rvecs f8 [12, 3, 1]
00000000: 07f2 e45d 1ea6 c53f b419 4e93 7eac c1bf
00000010: 1218 57b7 50c2 f8bf cd13 399a 994e c03f
00000020: 9ff7 3aac 9524 c4bf 3ae2 07c5 a3af f83f
00000030: 4395 1a70 7dfb babf fe88 721c d6f5 bcbf
00000040: aa54 dc3b 60ea f8bf b8d7 81f4 6caa ca3f
00000050: dc28 5b97 b5ff c63f b1de ad9c 2d1c f93f
00000060: 0c2d 7bc8 412f ca3f f511 0ebd 3a09 c93f
00000070: 1c1b 2195 fc02 f9bf 2c35 21c6 4a92 ccbf
00000080: 9ed6 da1c a68d cc3f 4b14 b55a 7393 f83f
00000090: 93eb ebcf 5cef c5bf 2fdc 1d12 ca4d c53f
000000a0: e679 27fd 86a2 f83f 2822 1392 382f d4bf
000000b0: d0f5 e0bd b6de cebf b1c2 7f25 a89e f13f
000000c0: edd1 e272 ddc6 d63f 5808 f073 e89c d9bf
000000d0: bcda 2bfa 290f f0bf 3f4b 4f6f d1b2 d8bf
000000e0: e4d2 1dc7 f4e7 82bf d03e 1ad6 ac3a 653f
000000f0: 2554 c3f5 f895 d63f 6fad e3a7 4003 c3bf
00000100: 3cb8 0b7c 5560 eebf f707 3d94 5614 cd3f
00000110: 11f9 b5d9 744f d03f 45ce 5938 8bb2 f13f
0.16913203797038553 -0.13807661240225644 -1.547440258190822 0.1273986819307126 -0.15736647519764532 1.542880792285486 -0.10539993273649366 -0.11312616533772155
-1.5572206819827366 0.208325976742058 0.17967862978395643 1.5693794365196647 0.20456716813200904 0.1955941603774957 -1.563229162727743 -0.2232144801550161
0.2230727806942711 1.5359986823325638 -0.1713672652475365 0.16643644222833262 1.5396795166812978 -0.31538213982688257 -0.24117168685363177 1.1012345757300575
0.3558877584394214 -0.40020190546068113 -1.0037021419827132 -0.38591419096080765 -0.00923148377089817 0.0025914550504423164 0.3529035949734996 -0.14853676030848414
-0.9492595122117176 0.22718317259028684 0.2548496366579381 1.1060898019030827

tvecs f8 [12, 3, 1]
00000000: 5727 15ad e63d 23c0 3eee 175a 77e6 f03f
00000010: 227f b5aa 0558 3240 e07c 4313 c0dd 0240
00000020: 04d9 6270 e198 13c0 d6ed 3eda 98e1 3240
00000030: cd52 5a0c 3e35 1440 5dfe bd42 3f70 e63f
00000040: 69c2 365c 82ff 3240 0ff0 d739 d04b 2440
00000050: 06e8 d11e 6020 f6bf 2fda 5c65 e124 3240
00000060: 097a af5e 25a9 21c0 bd7b f0f9 8100 febf
00000070: d1d1 ca64 9728 3340 e5c1 c4db 29d2 1340
00000080: 406c 9814 61a0 f73f e66f 0933 1934 3340
00000090: 082e 1355 8fba f8bf d507 4aa4 6365 ee3f
000000a0: 98e3 f1ff 0549 3340 59df 4194 ea73 f83f
000000b0: d4e8 ef7b c7fc f3bf 6540 7f38 52ed 3240
000000c0: 5169 d0d0 3d4d 1ac0 fba1 eda0 71e0 d8bf
000000d0: b8f7 aa22 7c55 2f40 ef42 8933 82b8 d7bf
000000e0: 781e a196 e533 e3bf 5c97 ce43 abe8 3240
000000f0: 9913 c514 c574 1dc0 c187 5d55 e365 fabf
00000100: 9c9d 439c 7e41 3140 23b4 2067 208e 2040
00000110: 792f a2d7 b18b 00c0 1899 650b 3c95 3140
-9.620900544006572 1.0562661666180158 18.343836468992897 2.3582765107126846 -4.899297481568514 18.88123859440187 5.051994507801919 0.7012020400579321
18.998082888955114 10.148073012933336 -1.3829041675476232 18.14406426922704 -8.830363234444137 -1.875123955083594 19.158560084835532 4.95523780239498
1.4766550831325418 19.203509511760693 -1.5455468486060244 0.94987661445361 19.28524779944891 1.5282998839665736 -1.249213680390814 18.92703583819129
-6.575431120605871 -0.3886989661755533 15.66696270310409 -0.3706365111620888 -0.600085062215796 18.90886329454166 -7.364033054855917 -1.6498750052055444
17.255838171489458 8.277590964071413 -2.0682103010530537 17.582947456649975
