camera_calibration/calib_param.npz (npz, 1768 bytes, 4 tensors)

mtx f8 [3, 3]
966.7471643243417 0.0 624.229117576509 0.0 966.2542315506804 356.562997607691 0.0 0.0
1.0
00000000: 490e 4a31 fa35 8e40 0000 0000 0000 0000
00000010: 5c90 983b d581 8340 0000 0000 0000 0000
00000020: 451e 8daa 0832 8e40 258c c709 0249 7640
00000030: 0000 0000 0000 0000 0000 0000 0000 0000
00000040: 0000 0000 0000 f03f

dist f8 [1, 5]
0.05465629212907609 -0.18486339718896533 -0.0012953793716768745 -0.0018405901064869092 0.1136279410608408
00000000: 0215 6ed6 e8fb ab3f 62b8 9392 9aa9 c7bf
00000010: 998d 6202 3739 55bf 1051 0394 fe27 5ebf
00000020: f5a3 c482 b816 bd3f

rvecs f8 [14, 3, 1]
0.09682117114464257 -0.3180687144621618 0.3824005740697817 0.039675577186718575 0.2971213432946307 0.03600680013946027 0.02869030002002685 -0.3509651257394925
-0.011713277935344508 0.038056586025737214 -0.5349408713847508 0.025599061367098 0.028596700146785434 -0.019250774323881257 1.56185373738049 0.04391309219123901
0.008412589106627476 -1.5659015377444347 0.002197324600009962 -0.029860811522259115 1.5587052920808597 0.14577498108122275 0.1480281190538821 -1.5612154601627883
0.2250241327719901 0.2159409228346064 -1.5397025401518825 0.16665042896107957 0.2399861296536655 -0.9905067638424893 -0.1934725357245759 0.5172043940920626
0.7992321965731369 -0.4318869380248051 -0.43892383475819013 -1.5238081745795486 -0.48009313636451656 -0.4990692655215422 -1.4875195827368406 0.2206938372431759
-0.32876584731076575 -1.034160688795222
00000000: b56c a0b3 45c9 b83f 52ba 9fe1 3c5b d4bf
00000010: 527c e641 4079 d83f e40a ef74 5b50 a43f
00000020: c037 193d 0904 d33f a6af 10ba 7b6f a23f
00000030: 2a9b 3171 fd60 9d3f 079c 456e 3676 d6bf
00000040: 4a44 4a8d 21fd 87bf eb82 c120 277c a33f
00000050: 1885 7c51 3c1e e1bf 411a 85ed a336 9a3f
00000060: 2ca8 9d0f 7448 9d3f 4932 9398 79b6 93bf
00000070: 07f4 3258 5afd f83f c8bb a7dd c67b a63f
00000080: 4c82 b398 9e3a 813f 33e5 55c5 ee0d f9bf
00000090: c7b1 76a9 1f00 623f b134 ae23 d593 9ebf
000000a0: 446e d9f5 74f0 f83f bfd0 282c c1a8 c23f
000000b0: d7c6 1cdd 95f2 c23f 4f8a f60f bdfa f8bf
000000c0: bd81 883d 97cd cc3f 33aa b8c0 f3a3 cb3f
000000d0: d053 7821 9fa2 f8bf 5a48 201f cd54 c53f
000000e0: fc94 2d91 ddb7 ce3f fd72 a53d 3bb2 efbf
000000f0: 483d ce42 b5c3 c8bf 0922 bf3a f08c e03f
00000100: c523 4666 4f93 e93f 23b6 981c 09a4 dbbf
00000110: 592a eefe 5317 dcbf 5b25 33ae 8461 f8bf
00000120: 060f ee8f d8b9 debf 12a4 7637 c0f0 dfbf
00000130: 8f3a 8055 e1cc f7bf 1fb0 b116 b23f cc3f
00000140: 3874 8fe8 7f0a d5bf f1f2 1214 ec8b f0bf

tvecs f8 [14, 3, 1]
-8.521200639667853 -4.412625228133399 19.638047133985957 7.851083347282991 -4.1334345097129885 20.83233887435487 -1.234862037921783 -4.315395607285667
19.59787378049443 -9.303142628094417 -4.234493591653072 18.775407042306096 -6.58584868986843 -3.6491724330507256 21.263761389428716 6.25068439837124
-1.0720708444416167 21.408343890579253 2.902187851969139 -3.6676175503661512 21.33785494144701 -10.534616420142495 -1.9339004308561065 21.00604309412786
-1.582579725332042 -2.1812900181071817 20.837306648584608 3.0262648718648815 -2.5218123857959065 20.89265122750559 8.370367150222899 -1.609162692014298
20.511599662762606 -2.9765494121203697 4.57164083948554 18.899188998722003 -9.460319134273165 4.450414359305358 18.63277709303145 -8.78955678232625
-1.456185139470283 18.283440021861903
00000000: 300e 6ccf da0a 21c0 9659 513a 87a6 11c0
00000010: b6c6 950e 57a3 3340 ac00 9b64 8267 1f40
00000020: 1580 5d0e a388 10c0 2b8b 1429 14d5 3440
00000030: b122 3fb2 fec1 f3bf 4160 ea10 f742 11c0
00000040: 065c 8e41 0e99 3340 c660 b382 359b 22c0
00000050: 0a16 8d16 1ff0 10c0 f3ca 6f13 81c6 3240
00000060: b38e 0db8 e857 1ac0 4757 0b51 8131 0dc0
00000070: 3a8b cddd 8543 3540 d67c 3269 b300 1940
00000080: 16f3 fdc1 3327 f1bf 2e8f a739 8968 3540
00000090: 9172 b843 ae37 0740 4d77 c8de 4757 0dc0
000000a0: 914e 54a9 7d56 3540 4ed5 503e b911 25c0
000000b0: e3f4 0394 41f1 febf 54a5 4b0a 8c01 3540
000000c0: 0ed2 391e 3f52 f9bf 8be4 562e 4873 01c0
000000d0: ee64 80ba 59d6 3440 df8b 6d5b ca35 0840
000000e0: 1521 ddf8 ab2c 04c0 eade 74ca 84e4 3440
000000f0: ad70 5bc3 a0bd 2040 d150 0261 21bf f9bf
00000100: c435 0c32 f882 3440 4fe1 5f23 f9cf 07c0
00000110: f197 5a37 5c49 1240 1a6f 0e40 31e6 3240
00000120: 41da 16f3 aeeb 22c0 1376 fb6b 39cd 1140
00000130: 603a f8ad fda1 3240 3bda 5cc9 4094 21c0
00000140: 1423 efc9 884c f7bf 3f46 7886 8f48 3240
