camera_calibration/calib_param.npz (npz, 1720 bytes, 4 tensors)

mtx f8 [3, 3]
0	0x408e9061c12a82b9	978.047731716265
1	0x0000000000000000	0.0
2	0x40831b8396d88d71	611.4392525594868
3	0x0000000000000000	0.0
4	0x408e8d4c11e40fd2	977.6621434991196
5	0x40767d46ed9104ad	359.8298164047981
6	0x0000000000000000	0.0
7	0x0000000000000000	0.0
8	0x3ff0000000000000	1.0

dist f8 [1, 5]
0	0x3faa0546a9bc6070	0.05082150289507659
1	0xbfcc58452ceaf057	-0.22144379323242688
2	0xbf612b193ed32b8d	-0.002095746333542653
3	0xbf7ac38e6b5169bd	-0.006534153294604325
4	0x3fcbf92b19941b41	0.21854151486351195

rvecs f8 [13, 3, 1]
0	0x3fcd2a311e0fdfcd	0.22785009353515165
1	0x3fd0d872be988aac	0.2632109509742502
2	0xbff8b88c78f08e28	-1.545055839939673
3	0x3f9efc62d8676e64	0.03025965162110679
4	0x3f93116440b0aaaf	0.018621031235094673
5	0x3ff906510f3a6363	1.564042148098644
6	0x3fd25d90db60e01f	0.2869608061187154
7	0x3fd544fe5c2f8f3b	0.3323360347987891
8	0xbff8a0032c1fd3ea	-1.5390655253988776
9	0xbf968664c70e1556	-0.021997046136239838
10	0x3f9aee00c23fb295	0.02629853425598812
11	0xbff8e7538c767a6a	-1.556476162607988
12	0xbfcc17d9caeea4c6	-0.21947786721037782
13	0xbfc759146577de15	-0.18240599588874376
14	0xbff8a7548b1d8431	-1.5408521112624494
15	0x3f950cb335bd4269	0.020556259303079836
16	0x3f8d6bacb9d7d214	0.014365529462318206
17	0x3ff8d163d5d96b81	1.5511206010330343
18	0xbfc9c423e0020402	-0.2012982219494291
19	0x3fd0072277295b26	0.25043546330327826
20	0x3ff8d27d558bbe16	1.5513890592227475
21	0x3f2cbe77c7386882	0.0002192994321468835
22	0xbfd1fd9892622744	-0.28110327048544925
23	0x3f7c065be522ef52	0.006842001881690001
24	0xbfd363c8e109df6b	-0.30296537376806637
25	0xbfd1ff0df6d0496c	-0.28119229414837466
26	0xbff834e071d2ae2c	-1.5129093595704814
27	0x3fd6c462b7daacbf	0.35573642687331736
28	0x3f76292234bc56ad	0.0054103218242482045
29	0xbff357f4a931a164	-1.2089735612044814
30	0x3fc5f3a4cc7f1d1b	0.1714979170339824
31	0x3fcaa4fa5e0219ab	0.20815972891086906
32	0xbff8ef761089bbe2	-1.558462204553273
33	0x3f8d423281c4fca0	0.014286417565584408
34	0x3f94b11767842e85	0.0202068001681668
35	0x3ff916464e5ab7a9	1.567938142844904
36	0xbfcd8cd294f699a6	-0.23086006425473932
37	0xbfd186070d1568f7	-0.2738053920526364
38	0x3fec14b8636a77bd	0.8775293294636338

tvecs f8 [13, 3, 1]
0	0xc003dae1f79fec1f	-2.481876310890143
1	0xc00129416b94f2ab	-2.1451443104582117
2	0x40349aa3bf6231a3	20.604061089966887
3	0x40280ad3a1f407aa	12.021145878828822
4	0xbfe6e452ee4369b2	-0.7153715756970114
5	0x4034f17c711940a2	20.94330508104816
6	0xc025247c40b89353	-10.571260473757922
7	0xc0041cafcf643de0	-2.514007206198343
8	0x4034ae3b80b2b247	20.680595439555216
9	0xc023bc183f9b6de8	-9.867372501109415
10	0xbffdacf1f7a53e9e	-1.854722945561583
11	0x40355a26f6db2f0b	21.352157047759686
12	0x401a9401776026bc	6.64453684353219
13	0x401339a888266a04	4.806306960434544
14	0x4033dc946a81e866	19.861639649120114
15	0xc008b1367dfe6f2d	-3.0865297168037586
16	0xbfab16b6b0d4e0c9	-0.05290766628826444
17	0x4035465bbd77a364	21.274837342938
18	0xc00864f0816fe504	-3.0492868530533332
19	0x3ffa77c4d40a7b62	1.6542404444550916
20	0x4034afc2caa8a86f	20.686566034485107
21	0xc020b3de917ec7d4	-8.351307436681886
22	0xbff56fe803f3ebee	-1.3398208765418036
23	0x4033cf6203c2c35e	19.81008933548889
24	0xbfe47a6209c26413	-0.6399393263446903
25	0x401318762c5ca0b0	4.773888295320077
26	0x403368778bc163cc	19.40807412597114
27	0xc02035987e632e58	-8.104679059607562
28	0xbfd5fd3a2750d375	-0.3435807594244616
29	0x403306971f9fd3be	19.025743462105076
30	0x401650f06051514e	5.579041962588532
31	0xc0049e30dd4b9dff	-2.5772416390134363
32	0x4034a0ca7eae8d21	20.628089826216755
33	0x401275835ef6767f	4.614758952896977
34	0xc0161828f3794a67	-5.523593715932839
35	0x4035031a5d4c951c	21.012121039578332
36	0xc0156e4a1199f21a	-5.357704424878216
37	0xbff56ce6ae77f596	-1.3390871825389232
38	0x4033fb652690d5f1	19.982012186394005
